weights.npy (npy, 928 bytes, 1 tensors)

array f8 [100]
0	0x4044769adf65ff8c	40.92660133819945
1	0x403ac732ffca9624	26.778121935805885
2	0x405481e51e74da4a	82.02960931216617
3	0xc02ca02ecf4225ea	-14.312857128929824
4	0xc0305751506080df	-16.341084502754594
5	0x4030c6faefb99c72	16.77726648599168
6	0xc03066d793eabb36	-16.401726956183857
7	0xc01e9fdcb56e8e29	-7.65611537444378
8	0x401a0369532f5c5f	6.5033314702660325
9	0xc035c3c7c83fb55c	-21.76476718478567
10	0x405845462258abea	97.082405649751
11	0x402c7003853a027f	14.218776858645695
12	0xc035243d1b99f8af	-21.141557431307486
13	0x404950258bc1ba9c	50.62614581069394
14	0xc0312b06f0ebb936	-17.16807466273277
15	0x40381f9cd41b08cf	24.12348676357288
16	0x3ffd3000bb29c260	1.8242194472369633
17	0xc00ec1a0eafd72f2	-3.8445452078434466
18	0xc050fe63d0774ab9	-67.97484218263243
19	0x40404c0ef39c1a31	32.59420628664191
20	0x4038e94f48bead5b	24.91136603026585
21	0xc046d2bb68738bb8	-45.64634423868068
22	0x4047380897d842d8	46.43776224193215
23	0xc03a6d231fbb1263	-26.42631719891723
24	0x40199587067c6951	6.396022893279523
25	0xc035fb0afa56887b	-21.980636259199382
26	0x404ab9c3637aeb38	53.45127528669258
27	0x4054d5efd79eec18	83.34276381034613
28	0xc0459f0d7bf28f97	-43.24259900420946
29	0x4024aac2b573bd4c	10.333516760233259
30	0xc0332429a6695c5a	-19.141260529253806
31	0xc024ad4b1082426e	-10.338463321591203
32	0xc04d61e6e7ab315b	-58.76485916003249
33	0xc0165e280e05fdb0	-5.591949671855602
34	0xc05c8fc1c97fcc3b	-114.2462028263116
35	0x4038a35dd8be6ab3	24.63815073632095
36	0x40215607ce151713	8.668028297495345
37	0xc02d9dd57ac21164	-14.808269344510968
38	0xc029b80d6c14943a	-12.859477403175436
39	0x402cef5e479e8cd0	14.467516172508482
40	0xc04c9bf757dc5632	-57.21848581560734
41	0x4034ef73e3dc9ab5	20.93536209236
42	0xc054d4562e9d7a80	-83.31776013735544
43	0x402b46af62a9ba8e	13.638056834429587
44	0xc0506df7ff7cd068	-65.7182615965736
45	0xc0380393abe736cb	-24.013972038220157
46	0xc031e4e1cebe729e	-17.894070550437952
47	0xc042c6549155f82f	-37.54945580194214
48	0x4021237f89b161ed	8.56933241167368
49	0xc0590f7389bd7e51	-100.24142688279359
50	0x40367339f54ef83d	22.450103122501094
51	0x404460d0ff71fc13	40.75637810769708
52	0xc0389ab757393245	-24.6043600573196
53	0x403132ec521ba2e1	17.198918468234186
54	0x40548a536cd6ffab	82.16134186740844
55	0xc02073d62fa51034	-8.226243485354736
56	0x4046b486eb693643	45.41036741864493
57	0xc0443f823f2bceaf	-40.49616231574088
58	0x40170bf32d80c144	5.761669836982325
59	0x4055d10a80717d30	87.2662659748355
60	0x401caa12f6170ef6	7.166087956578613
61	0xc043806ba72b39f2	-39.00328530893957
62	0xc01cd40786d9b61c	-7.207059962308929
63	0x40281fba9ace734a	12.061970555974444
64	0xc0401c5ec8b5288c	-32.22164257856011
65	0x404a5534bbacaf67	52.66567178661244
66	0xc04ae691b515cb1d	-53.80132163585788
67	0xc033f2b83a1a4751	-19.948123580375356
68	0xc05c0d501ff33d0b	-112.20801543000941
69	0xc01c6d6ffb016502	-7.106872484169118
70	0x4034ceed3f62fd24	20.808307611148066
71	0xc02a22f4fdd9f9e6	-13.068275387628955
72	0x4032098a95559f44	18.037270863918152
73	0xc025f28e24d4dc6c	-10.973740721687328
74	0x4058ddfbfb3f1c15	99.46850472605759
75	0x4038569c936e4b85	24.338326658656587
76	0xc053577553acc206	-77.36653606291665
77	0x4052a3f4ae79f652	74.5618091765439
78	0x4049e46041530712	51.78418747476657
79	0xc021f0b727509d1c	-8.970147350874463
80	0x402f8054b774581d	15.750646336509869
81	0xc04ab4e7a553feba	-53.41331926919288
82	0x402c30b15f3dac59	14.095103241232367
83	0x403125aaf53274b7	17.14713985902628
84	0xc0591f8e14ddac53	-100.49304696700828
85	0xc0499bf280428aca	-51.21833804368141
86	0xc0346e61600ea546	-20.431173327994905
87	0xc02a6a3de0490676	-13.207503327287878
88	0x402e63bcff52f038	15.194801310419379
89	0xbfe76c6f313077a9	-0.7319866142968198
90	0x404891a03bac5652	49.13770242609884
91	0xc02e070c70315b04	-15.013766771340222
92	0xc04862a38611c3d5	-48.77061534755163
93	0xc02aa0835c954124	-13.313502209872759
94	0xc02a0033e4e8bfda	-13.000395921146197
95	0xc04cfe16579d95e2	-57.9850568313084
96	0x403da6912b3e0a02	29.65065260185839
97	0xc0416a00baec2dfa	-34.82814728290755
98	0x404abc2184118b43	53.4697728238739
99	0xc00b94363748bb07	-3.447369033724843
